ckpts/pretrained_discriminator.pth (torch, 747574 bytes, 31 tensors)

layers.0.weight_orig f4 [16, 2, 4, 4]
0	0xbc62454d	-0.013810468
1	0x3b08d97c	0.0020881584
2	0xbc8057b3	-0.015666818
3	0xbcf0a7e5	-0.029376933
4	0xbce46754	-0.027881302
5	0xbd633816	-0.05547341
6	0xbd883296	-0.066502735
7	0xbdb74b40	-0.089499
8	0xbd54af11	-0.05192477
9	0xbdc0f7c4	-0.094222575
10	0xbdc7e2f1	-0.097600825
11	0xbdd76563	-0.10517385
12	0xbd411daa	-0.04714743
13	0xbdc28fdb	-0.095000945
14	0xbd6cae3f	-0.05778336
15	0xbd62a0d9	-0.055329178
16	0x3d127082	0.035751827
17	0x3d95557d	0.07291696
18	0x3d7aad06	0.061200164
19	0xbc30707b	-0.010769005
20	0x3ddde268	0.10834199
21	0x3e1323db	0.14369147
22	0x3de3d7de	0.11125158
23	0x3d1d4f40	0.038405657
24	0x3db23fd9	0.08703584
25	0x3dc5b3ef	0.0965346
26	0x3db1afa1	0.08676077
27	0x3da63162	0.08114888
28	0x3c96ee99	0.01842432
29	0x3d72004e	0.05908232
30	0x3db6941f	0.089149706
31	0x3dc8f1e8	0.09811765
32	0xbd8fab01	-0.07015038
33	0xbde9cf04	-0.11416438
34	0xbd8a08da	-0.067399696
35	0xbcf8b823	-0.03036124
36	0xbd97decd	-0.07415543
37	0xbdc033e2	-0.09384896
38	0xbdb7ecfc	-0.08980748
39	0xbc5aebfd	-0.013361928
40	0xbd49a354	-0.049228027
41	0xbda87674	-0.08225718
42	0xbda1f1e0	-0.07907462
43	0xbcb0a309	-0.021562116
44	0xbc1ca3bb	-0.009560521
45	0xbbb70593	-0.0055853813
46	0xbb02282c	-0.001986037
47	0x3c7762a2	0.0150991995
48	0x3d1d3663	0.038381945
49	0x3d911402	0.07083894
50	0x3d85b7dc	0.06529209
51	0x3cc77d53	0.024351751
52	0x3db70ea4	0.08938339
53	0x3dd2eb62	0.10298802
54	0x3dcaa40c	0.09894571
55	0x3d1e380e	0.038627677
56	0x3d4e4ffe	0.050369255
57	0x3d9f9cd2	0.07793583
58	0x3d822786	0.06355195
59	0x3c1f2cf1	0.009715305
60	0x3d0fd28f	0.035112914
61	0x3d389011	0.045059267
62	0x3c184cdb	0.0092956675
63	0xbc71208f	-0.014717235
64	0xbc09cd7b	-0.008410807
65	0x3ca364df	0.01994556
66	0x3cba2157	0.022720976
67	0x3c6257ec	0.0138149075
68	0x3d607252	0.054796524
69	0x3dcd6fc8	0.10031086
70	0x3dc9f244	0.098606616
71	0x3d9b4619	0.075817294
72	0x3c9d016e	0.01916572
73	0x3cbd4283	0.023103004
74	0x3d59e7ca	0.053199567
75	0x3d1cfa69	0.038324747
76	0x3b35ed28	0.0027759764
77	0x3ca719dd	0.020398075
78	0x3d09ca78	0.033640355
79	0x3cc73285	0.024316082
80	0xbd6e0288	-0.058107883
81	0xbd9eb382	-0.07749082
82	0xbdb63753	-0.08897271
83	0xbd921df7	-0.071346216
84	0xbd307548	-0.043080598
85	0xbdc016a9	-0.09379322
86	0xbde69fcb	-0.11260947
87	0xbd801e98	-0.06255835
88	0xbc182450	-0.009286001
89	0xbd7637e3	-0.06011189
90	0xbd8c16fb	-0.06840321
91	0xbcd1913e	-0.025581952
92	0x3c9c0d92	0.01904944
93	0xbcce4087	-0.025177253
94	0xbd32bbf3	-0.043636274
95	0xbc1c327d	-0.009533522
96	0xbc545f92	-0.012962239
97	0x3ce0bdd3	0.027434265
98	0x3d38acfe	0.045086853
99	0x3b5ac8b0	0.003338378
100	0x3da05c1c	0.078300685
101	0x3dfe60dc	0.12420818
102	0x3e0be86d	0.13662882
103	0x3dcce04b	0.10003718
104	0x3d784e9f	0.060621854
105	0x3dcdae53	0.10043015
106	0x3da20487	0.0791102
107	0x3d85c1f0	0.06531131
108	0x3d539075	0.051651437
109	0x3da5f48b	0.081032835
110	0x3d8694c8	0.065713465
111	0x3c9e1a4c	0.019299649
112	0xbd0cf8b0	-0.034416854
113	0xbd939ed6	-0.0720803
114	0xbd7fa18b	-0.06240992
115	0xbd4ccd8b	-0.05000071
116	0xbd383d46	-0.04498031
117	0xbdc5a3d1	-0.09650386
118	0xbdc70bfd	-0.097190835
119	0xbdcaad02	-0.0989628
120	0xbd1b7f0d	-0.037962962
121	0xbd69963b	-0.057028037
122	0xbd92e6d3	-0.071729325
123	0xbd4bb590	-0.0497337
124	0xbc07e776	-0.008294931
125	0xbc29170d	-0.010320437
126	0xbce26515	-0.02763609
127	0xbccf45a7	-0.025301768
128	0xbd02fcd3	-0.031979393
129	0xbd8df8e5	-0.069322385
130	0xbdbea3c9	-0.09308583
131	0xbd5a7d05	-0.053341884
132	0xbdab7a12	-0.083728924
133	0xbdd45b90	-0.10369027
134	0xbe09ba3c	-0.13449949
135	0xbd8c99f9	-0.068653055
136	0xbda139b1	-0.07872332
137	0xbdf0dffa	-0.1176147
138	0xbe1b0de3	-0.15142016
139	0xbda2e02f	-0.07952916
140	0xbc9e9c03	-0.019361502
141	0xbd259beb	-0.040431898
142	0xbd9597b2	-0.07304324
143	0xbd334b51	-0.043773
144	0x3d457cb8	0.048214644
145	0x3d403e10	0.046934187
146	0x3d4464fe	0.047947876
147	0x3d7a664c	0.061132714
148	0x3cbe6d80	0.023245573
149	0x3cff7f0d	0.031188512
150	0x3b319f4c	0.0027103005
151	0x3c8bf66f	0.017085282
152	0x3d6ae1f6	0.0573444
153	0x3d273ea5	0.040831227
154	0x3d312299	0.043245886
155	0x3d2c2920	0.042031407
156	0x3dae8fd3	0.08523526
157	0x3da7d48e	0.081948385
158	0x3d8128c7	0.06306606
159	0x3d7a510e	0.061112456
160	0xbd0c8915	-0.03431042
161	0xbd12fc0c	-0.035884902
162	0xbc9d22cc	-0.019181632
163	0xbcd44805	-0.025913248
164	0xbd9b30d5	-0.07577673
165	0xbdbc37c7	-0.09190326
166	0xbd5fae7b	-0.054609757
167	0xbdaf153a	-0.085489705
168	0xbc23b3a8	-0.009991564
169	0xbc01ffb4	-0.0079344995
170	0xbd1ceba6	-0.03831067
171	0xbce145f9	-0.027499186
172	0xbd1021f8	-0.035188645
173	0xbd26c181	-0.040711883
174	0xbd247fc6	-0.040160917
175	0xbcb94bd2	-0.022619162
176	0x3cef17a6	0.029186081
177	0x3dd36a5a	0.10323019
178	0x3de3f411	0.11130536
179	0x3d598ec8	0.053114682
180	0x3ce79453	0.028268969
181	0x3d57f2ea	0.052721895
182	0x3d8f73ad	0.07004485
183	0x3c4adddc	0.012381997
184	0x3d16ee88	0.036848575
185	0x3d66a991	0.056314055
186	0x3d1730c0	0.036911726
187	0x3ba6a9ba	0.005086151
188	0x3b20507e	0.002446204
189	0x3d0551f3	0.032548856
190	0x3c1a7a2c	0.009428542
191	0xbbb3782b	-0.0054769716
192	0xbd8b9a93	-0.06816592
193	0xbdea256f	-0.11432921
194	0xbdc59231	-0.096470244
195	0xbdc5836e	-0.09644209
196	0xbdd70945	-0.10499815
197	0xbdbf9fc3	-0.09356644
198	0xbda202c9	-0.079106875
199	0xbd27e978	-0.040994138
200	0xbd3742aa	-0.04474131
201	0xbd43b764	-0.047782317
202	0xbcd1c363	-0.025605863
203	0xbcaeca84	-0.021336801
204	0xbcaf38a5	-0.021389315
205	0xbcbc8221	-0.023011269
206	0xba00eb9a	-0.000491792
207	0xb98f963a	-0.00027387013
208	0x3d5f7c33	0.054561805
209	0x3da9e3a5	0.08295373
210	0x3dd13dc0	0.10216856
211	0x3d6f735c	0.058459625
212	0x3b37ff72	0.0028075841
213	0x3d41d2e8	0.047320276
214	0x3da69d0b	0.08135422
215	0x3ddff561	0.10935474
216	0x3d1bbec2	0.038023718
217	0x3d9ca755	0.076491036
218	0x3e0adcf6	0.13560852
219	0x3dfff021	0.12496973
220	0x3d4ae4fd	0.049534786
221	0x3d93c129	0.07214577
222	0x3dd19540	0.10233545
223	0x3dace585	0.08442215
224	0xbdeb498d	-0.11488638
225	0xbcd960e6	-0.026535463
226	0x3d100245	0.035158414
227	0xbd1e4a48	-0.03864506
228	0xbcc8635f	-0.024461446
229	0x3df5cbc4	0.12001756
230	0x3d489190	0.048966944
231	0xbca41109	-0.020027654
232	0x3d3ee725	0.046607155
233	0x3dcd9bbb	0.10039469
234	0x3ce12eeb	0.027488193
235	0xbd6d9428	-0.05800262
236	0x3d9d70ed	0.076875545
237	0x3d5334d6	0.05156406
238	0x3ba1d67c	0.0049388986
239	0xbce17b06	-0.027524482
240	0x3b8f0340	0.004364401
241	0xbbb1294d	-0.0054065348
242	0x3d267e3e	0.040647738
243	0x3d7c1298	0.06154117
244	0xbca08b83	-0.019597774
245	0x3bc1281e	0.005894675
246	0xbd48916d	-0.048966814
247	0xbbc1bd5a	-0.005912465
248	0x3cd28830	0.025699705
249	0xbd32e44a	-0.043674745
250	0xbdaa51b9	-0.083163686
251	0xbd86e293	-0.06586184
252	0x3d6ae2e8	0.0573453
253	0xbd15b658	-0.03655085
254	0xbdc16df4	-0.094448
255	0xbcd019a4	-0.025402851

layers.0.weight_u f4 [16]
0	0x3ea1d0f3	0.31604728
1	0x3e7c97b9	0.24667253
2	0xbe63e339	-0.22254647
3	0xbe96a000	-0.29418945
4	0x3e95644d	0.29178086
5	0x3e3d0369	0.18458332
6	0x3e9716a6	0.29509467
7	0xbde3aa8b	-0.11116513
8	0xbe801622	-0.25016886
9	0xbbb09d8e	-0.0053898757
10	0xbe96376d	-0.29339162
11	0xbe72ff3f	-0.23730181
12	0x3c9d0435	0.019167045
13	0xbed0f8ae	-0.40814728
14	0xbe8a1b09	-0.2697375
15	0xbe4c5f03	-0.19958119

layers.0.weight_v f4 [32]
0	0xbd930701	-0.0717907
1	0xbe2089f7	-0.1567763
2	0xbe3af434	-0.18257219
3	0xbdebf84f	-0.115219705
4	0xbe0f3908	-0.139866
5	0xbe82f833	-0.25579986
6	0xbe97d204	-0.29652417
7	0xbe3824bf	-0.17982768
8	0xbe0c5791	-0.13705279
9	0xbe81dfd8	-0.25366092
10	0xbe8aa58f	-0.27079436
11	0xbe2e2370	-0.17005706
12	0xbdb0b594	-0.08628383
13	0xbe31715b	-0.17328398
14	0xbe27ddee	-0.16393253
15	0xbdaad1f9	-0.0834083
16	0x3da78e51	0.081814416
17	0x3e217c94	0.15770179
18	0x3e0fcf0d	0.14043827
19	0x3d7b2127	0.061310913
20	0x3e1b809b	0.15185778
21	0x3e730fc1	0.23736478
22	0x3e70a635	0.23500903
23	0x3e0b1e81	0.13585855
24	0x3e20ed48	0.15715516
25	0x3e7942ab	0.24341838
26	0x3e85ac3e	0.26107973
27	0x3e2b5dd5	0.16735013
28	0x3da8c92f	0.08241498
29	0x3e114279	0.14185514
30	0x3e35d302	0.17756274
31	0x3dfb01e2	0.122562185

layers.1.weight f4 [16]
0	0x3df45b11	0.11931432
1	0x3e0ec038	0.13940513
2	0x3df73642	0.12070896
3	0x3df47d6c	0.11937985
4	0x3dd9bd1f	0.10631775
5	0x3db3c1ab	0.087771736
6	0x3e008e84	0.12554365
7	0x3dfb89de	0.122821555
8	0x3d4749d3	0.04865439
9	0x3dfb4782	0.122694984
10	0x3e248649	0.1606685
11	0x3d8c65b4	0.06855336
12	0x3d92c890	0.071671605
13	0x3dd3a6d2	0.10334553
14	0x3dbc7644	0.09202245
15	0x3e0b5799	0.13607635

layers.1.bias f4 [16]
0	0xbc768eab	-0.015048663
1	0xbd9df546	-0.07712798
2	0x3cd87785	0.026424179
3	0xbcb232e8	-0.02175279
4	0x3d6529b9	0.055947993
5	0xbd531f07	-0.05154326
6	0x3ca07784	0.01958824
7	0xbdfa3389	-0.12216861
8	0x3db2373a	0.0870194
9	0xbd060a8d	-0.032724906
10	0x3c6a0dc5	0.0142855095
11	0x3c567de5	0.013091539
12	0x3d3fe0bf	0.046845194
13	0x3caa6819	0.02080159
14	0xbd13d045	-0.036087293
15	0xbe0630bd	-0.1310453

layers.2.weight f4 [16]
0	0x3e157385	0.14594848
1	0x3e5cd83a	0.21566859
2	0x3d8027c1	0.062575825
3	0x3d1c770d	0.038199473
4	0xbd7ee9d8	-0.06223473
5	0x3e329bdb	0.17442267
6	0x3dda36b8	0.10654968
7	0x3d96a909	0.0735646
8	0x3bc6167a	0.00604516
9	0x3e0fa893	0.1402915
10	0x3d0e6645	0.0347655
11	0x3df79d7f	0.12090587
12	0x3d863f61	0.06555057
13	0x3edce67b	0.43144593
14	0xbd287cce	-0.041134648
15	0x3dddc8c8	0.108293116

layers.3.weight_orig f4 [32, 16, 4, 4]
0	0xbb35eaea	-0.0027758428
1	0x3c85b08f	0.016319541
2	0x3d67e7ab	0.05661742
3	0xbc6d77d8	-0.014493905
4	0x3cf71baa	0.030164558
5	0x3da8dfab	0.08245786
6	0x3dcb9f5a	0.09942503
7	0x3c9cf6bc	0.01916062
8	0xbc7cb274	-0.015423406
9	0xbca53b16	-0.020169776
10	0xbc808014	-0.015686072
11	0xbd4d597d	-0.05013417
12	0x3c289fc2	0.0102919955
13	0x3b4172f1	0.0029517973
14	0x3c79163e	0.015203057
15	0xbd6bb29d	-0.057543386
16	0x3c3b1774	0.011419166
17	0xbc5e7d66	-0.013579702
18	0x3dc6471e	0.09681533
19	0xbb8f7a40	-0.004378587
20	0xbc301b98	-0.010748766
21	0xbc7f1c1c	-0.015570667
22	0x3e24db97	0.16099392
23	0x3d926278	0.07147688
24	0xbd91e4c4	-0.07123712
25	0x3d6681bb	0.056276064
26	0x3e010d0b	0.12602632
27	0xbd0d9a42	-0.03457094
28	0xbd1911e3	-0.037370574
29	0xbda5d42f	-0.080971114
30	0xbd679558	-0.05653891
31	0xbe208189	-0.15674414
32	0x3e1acd0f	0.15117286
33	0x3e12be44	0.14330393
34	0x3c2a9855	0.010412295
35	0x3cc25006	0.023719799
36	0x3e4d1a82	0.20029643
37	0x3de9b7f5	0.1141204
38	0xbd286ff0	-0.041122377
39	0x3d22f9aa	0.03978888
40	0x3e0323ed	0.12806673
41	0x3dd82878	0.10554594
42	0xbcef1d48	-0.029188767
43	0xbcd3988a	-0.025829572
44	0x3d9cfe04	0.07665637
45	0x3d86d01b	0.06582662
46	0xbd53a85a	-0.051674224
47	0xbca688e9	-0.020328956
48	0xbd0e833a	-0.034793116
49	0xbb23d809	-0.0025000593
50	0xbd82d868	-0.063889325
51	0xbd2740bc	-0.04083322
52	0x3c3919e7	0.0112976795
53	0xbd7f7b59	-0.062373493
54	0xbdd9e365	-0.10639075
55	0xbc5a52a7	-0.01332537
56	0xbd187347	-0.037219312
57	0x3c8839f7	0.016629202
58	0xbcdfd260	-0.027321994
59	0xbc9e886a	-0.019352157
60	0xbd6ebc92	-0.058285303
61	0x3c34f107	0.0110437935
62	0x3ccf6572	0.025316928
63	0x3d80caa1	0.062886484
64	0x3d82b2cf	0.06381761
65	0x3d632fa1	0.055465344
66	0x3d74ed3b	0.059796553
67	0x3da8a7f3	0.08235159
68	0x3d643f92	0.055724688
69	0x3d2b7933	0.04186363
70	0x3cfc67de	0.030811246
71	0x3d8fcd4b	0.070215784
72	0x3d6a918d	0.057267714
73	0x3d4a67cb	0.04941539
74	0x3d003d0b	0.031308215
75	0x3d7c6ff8	0.06163022
76	0x3d61a3f6	0.055088006
77	0x3d4c7375	0.049914796
78	0x3d026d69	0.031842623
79	0x3d6e81ac	0.058229133
80	0xbdb25e1d	-0.08709357
81	0xbda04bc4	-0.07826951
82	0x3d52505c	0.051346168
83	0xbd3fbbae	-0.046809845
84	0xbd90a1e2	-0.07062127
85	0xbc8342e2	-0.016023103
86	0x3db97957	0.09056347
87	0xbd549d9d	-0.051908124
88	0xbd3069ef	-0.043069776
89	0xbd55a62b	-0.052160423
90	0x3dd1810b	0.10229691
91	0x39249799	0.00015696733
92	0xbd8f7189	-0.07004077
93	0xbd4b8a49	-0.049692426
94	0x3da0899d	0.07838748
95	0xbd409e52	-0.047025986
96	0x3d3f31a8	0.046678215
97	0x3d2259f4	0.039636567
98	0x3d6b950c	0.05751519
99	0xbc838584	-0.016054876
100	0x3cca4941	0.024693133
101	0x3d49fc24	0.049312726
102	0x3dcfaa2d	0.1013988
103	0x3d4d9174	0.050187543
104	0x3d6feb8d	0.058574248
105	0x3da63dba	0.08117242
106	0x3d88a355	0.06671778
107	0xbd053e07	-0.032529857
108	0x3d811865	0.06303481
109	0x3d3eaf09	0.046553645
110	0x3d744a58	0.059641212
111	0xbd10650b	-0.035252612
112	0xbd2156fd	-0.0393896
113	0x3c95d6e2	0.01829094
114	0xbdbb8c8f	-0.09157669
115	0x3c977a3b	0.018490901
116	0x3dba4463	0.09095075
117	0x3d5fc9c7	0.05463579
118	0xbe077eec	-0.1323201
119	0x3d5018b3	0.050804805
120	0xbd2eff97	-0.04272422
121	0xbcaa5bda	-0.020795751
122	0x3e05144f	0.12996028
123	0x3df985ce	0.12183724
124	0x3d003370	0.031299055
125	0x3c5b7530	0.013394639
126	0xbc9e7f4c	-0.01934781
127	0xbcb88ce6	-0.022528123
128	0x3e28b040	0.16473484
129	0x3e31bc97	0.17357098
130	0x3db34759	0.08753843
131	0x3dc734a8	0.0972684
132	0x3e072774	0.13198644
133	0x3ddb6f6c	0.107146114
134	0x3c733688	0.014844544
135	0x3d2494a4	0.040180817
136	0x3df829bf	0.121173374
137	0x3dfffd63	0.124995016
138	0x3d59e6cb	0.053198617
139	0x3db7169a	0.08939858
140	0x3dd12c5f	0.10213541
141	0x3dde4ca5	0.108544625
142	0x3d5912b6	0.05299636
143	0x3d9e6559	0.07734174
144	0x3e4975cc	0.19673842
145	0xbde26e88	-0.110562384
146	0x3c1c183f	0.009527265
147	0xbd5e2c1f	-0.054241296
148	0x3db2f017	0.087372
149	0xbd15494a	-0.036446847
150	0x3d1a85d6	0.037725292
151	0x3c3db8bf	0.011579691
152	0x3da49591	0.0803634
153	0xbe183f19	-0.1486782
154	0xbc03bc77	-0.008040539
155	0x3d4d237a	0.05008266
156	0x3d77c996	0.06049498
157	0x3c00ff46	0.007873362
158	0x3d59e03f	0.053192373
159	0xbc8de7b2	-0.017322395
160	0x3d4c43a4	0.049869195
161	0x3d35d5a3	0.044393193
162	0xbcb7e98f	-0.022450237
163	0xbd0a3061	-0.033737544
164	0x3d739e09	0.059476886
165	0x3ca22ca1	0.019796671
166	0xbd2256cf	-0.03963357
167	0x3b12de82	0.0022410457
168	0x3d034614	0.032049254
169	0x3c62cddb	0.013843025
170	0xbccbb56e	-0.024866786
171	0x3d0cac00	0.03434372
172	0x3cdbddc2	0.02683914
173	0x3d7adfb3	0.061248492
174	0x3d022e46	0.03178241
175	0x3d0c7c1e	0.034298055
176	0xbc4b8cae	-0.012423677
177	0x3ccd8087	0.0250857
178	0xbdbc4c4f	-0.09194242
179	0xbd214637	-0.039373603
180	0x3cf79304	0.03022147
181	0xbc9c2647	-0.01906122
182	0xbd99c20d	-0.075077154
183	0xbc4c3e12	-0.012465971
184	0x3b024b6f	0.0019881388
185	0x3cb3e66d	0.021960462
186	0xbcec6c31	-0.028860183
187	0xbc580727	-0.013185299
188	0x3c54efd9	0.012996637
189	0x3d9270c6	0.07150416
190	0x3d2b4f93	0.041823935
191	0x3d7fad0f	0.0624209
192	0x3cbca10c	0.023026012
193	0x3cf4dcf7	0.02989052
194	0x3cba7fcc	0.022766016
195	0x3cc2abbb	0.023763528
196	0x3cd772ca	0.026299853
197	0xbccb912e	-0.0248495
198	0x3bd200e7	0.006408799
199	0xbd28b376	-0.041186772
200	0xbbc68142	-0.006057889
201	0xbe08e3cd	-0.13368149
202	0xbd96ad0b	-0.07357224
203	0x3d12268e	0.0356813
204	0x3bf0743a	0.007338074
205	0x3d1f9738	0.038962573
206	0x3c58cb70	0.013232097
207	0x3e159827	0.14608823
208	0xbcf7cab8	-0.030248031
209	0xbd9cbcd6	-0.07653205
210	0xbe13a5e6	-0.14418754
211	0xbdeae4c7	-0.11469417
212	0x3d18fb5b	0.037349086
213	0xb9f69d66	-0.00047038047
214	0xbd20f4a8	-0.039295822
215	0xbc460052	-0.012085037
216	0x3c050291	0.008118288
217	0xbcdb920e	-0.026803043
218	0xbd2db261	-0.042406444
219	0x3d7a5652	0.061117478
220	0x3b52f7fd	0.003219127
221	0x3ca0821f	0.019593297
222	0xbcdf0d0b	-0.027227899
223	0xbb951901	-0.0045501
224	0x3db7c4b4	0.08973065
225	0x3d8dd45f	0.06925272
226	0xbb45f4ef	-0.0030205806
227	0x3cdf5076	0.027260046
228	0x3d8fa1d2	0.07013287
229	0xbc03cd64	-0.008044574
230	0xbd82b2b1	-0.06381739
231	0x3c3fc717	0.011705182
232	0x3d8a3626	0.06748609
233	0x3cfbe61b	0.030749371
234	0xbcccc00e	-0.024993923
235	0x3d2e083d	0.042488325
236	0x3d8f9ab1	0.07011927
237	0x3da7db5d	0.08196137
238	0x3d4725d5	0.048620064
239	0x3db83b24	0.08995655
240	0x3dee3b1c	0.11632368
241	0x3cef4df2	0.029211972
242	0xbe2c459e	-0.16823432
243	0xbdb47fa0	-0.08813405
244	0x3ddfda4c	0.10930309
245	0xbca265c3	-0.019823914
246	0xbe5dd61a	-0.21663705
247	0xbd87a694	-0.06623569
248	0x3dc31f3a	0.0952744
249	0x3e40126c	0.18757027
250	0xbc6831de	-0.0141720455
251	0xbd3c6354	-0.045993164
252	0x3d8db9c8	0.069202006
253	0x3e11036f	0.14161466
254	0xbd2d98c7	-0.042382028
255	0x3c2a50be	0.010395227

layers.3.weight_u f4 [32]
0	0xbdabdacf	-0.08391344
1	0x3e69adec	0.22820252
2	0xbe2e5b50	-0.1702702
3	0xbe688b38	-0.22709358
4	0xbe6ee492	-0.2332938
5	0xbe51135c	-0.20417541
6	0xbc267b87	-0.010161287
7	0x3e83d4e6	0.25748366
8	0xbd5b8f6e	-0.053603582
9	0x3e83baac	0.25728357
10	0xbe7b09f5	-0.24515517
11	0xbe97741b	-0.2958077
12	0x3d1fc166	0.0390028
13	0xbe65ae8f	-0.2242987
14	0x3e452ab3	0.1925457
15	0x3cfaa753	0.030597365
16	0xbb3fb29f	-0.0029250754
17	0xbe1caf06	-0.15301141
18	0x3e425295	0.18976815
19	0xbd5cbe6b	-0.053892534
20	0xbe0bf69c	-0.13668293
21	0xbde275b4	-0.11057606
22	0xbe823138	-0.25428176
23	0xbe083bbd	-0.13304038
24	0x3c83c567	0.01608534
25	0x3e412d4b	0.18864934
26	0xbe52a2e3	-0.20569949
27	0xbd9740cf	-0.07385408
28	0x3e6cbe0f	0.23119377
29	0x3e38d25e	0.18048999
30	0x3e2f4256	0.17115149
31	0x3e0488f6	0.12942871

layers.3.weight_v f4 [256]
0	0xb9d4e182	-0.00040603807
1	0xbdad58c5	-0.08464197
2	0xbdc3005b	-0.09521552
3	0xbca4ae14	-0.020102538
4	0xbd4e6b89	-0.050395522
5	0xbde5ead4	-0.112264305
6	0xbdef8fad	-0.11697326
7	0xbb8c4843	-0.004281075
8	0xbd1979b7	-0.037469592
9	0xbdc22b05	-0.094808616
10	0xbd940cd0	-0.07229006
11	0x3b92fe86	0.004485908
12	0xbc08c29b	-0.008347179
13	0xbaeddb27	-0.0018146978
14	0x3bcd1d25	0.006259578
15	0x3d48c2b0	0.049013793
16	0x3d63b503	0.055592548
17	0x3d157145	0.036484975
18	0xbd16c570	-0.036809385
19	0x3d2d0c29	0.042247925
20	0x3d6cb369	0.057788286
21	0xbd069f5b	-0.032866817
22	0xbda6dfe3	-0.08148172
23	0x3d13a5e6	0.036046885
24	0x3cf16585	0.029467354
25	0xbd033f6c	-0.032042906
26	0xbd770650	-0.060308754
27	0x3d48f342	0.049060114
28	0x3d9d18c9	0.07670743
29	0x3d4a01b3	0.049318027
30	0x3d807b57	0.06273525
31	0x3d9fc8ed	0.078019954
32	0xbc1d1d77	-0.0095895445
33	0x3d0af8d5	0.03392871
34	0x3d8173fa	0.06320949
35	0xbbe13792	-0.0068730796
36	0xba938ad4	-0.0011256584
37	0x3d93727a	0.07199569
38	0x3d9d1d11	0.076715596
39	0xbd1a19f9	-0.037622426
40	0x3d08838f	0.03332859
41	0x3da12f0e	0.07870303
42	0x3daef515	0.085428394
43	0xbc34238a	-0.010994801
44	0x3bdcd498	0.0067392103
45	0x3d756311	0.05990893
46	0x3d674cf9	0.05646989
47	0xbc31a945	-0.01084358
48	0xbc7a2e8e	-0.015269889
49	0x3d850d11	0.06496633
50	0x3dcf0d2b	0.101099335
51	0x3c90b0c0	0.017662406
52	0x3d2a02ee	0.0415067
53	0x3dbf7daa	0.093501404
54	0x3de1f3df	0.11032843
55	0xbcf25011	-0.029579194
56	0x3cccce41	0.025000693
57	0x3df11f08	0.11773497
58	0x3dce8674	0.10084239
59	0xbc686ec4	-0.014186565
60	0x3cb0ea26	0.021596026
61	0x3d503e98	0.050840944
62	0x3cc903b9	0.024537908
63	0xbd2f7000	-0.04283142
64	0xbcf2ea67	-0.029652787
65	0xbd70435e	-0.058657996
66	0xbd979826	-0.07402067
67	0xbd59aeb1	-0.053145114
68	0xbd8992d8	-0.06717461
69	0xbdc22fcd	-0.094817735
70	0xbdd40778	-0.10352987
71	0xbd9afd0a	-0.075677946
72	0xbd992de6	-0.074794576
73	0xbdcfaa2c	-0.101398796
74	0xbde22c66	-0.110436246
75	0xbdafa6fe	-0.08576773
76	0xbd54f02f	-0.05198687
77	0xbd8de4cf	-0.069284074
78	0xbda87f63	-0.08227422
79	0xbd8d1e8f	-0.06890594
80	0x3d4a0026	0.049316548
81	0xbc78453c	-0.0151532255
82	0xbd8eac7b	-0.06966492
83	0x3c151c6a	0.009101013
84	0xbc3b88ff	-0.011446237
85	0xbdc7f005	-0.09762577
86	0xbdcbe78f	-0.09956276
87	0x3cc11bbb	0.023572793
88	0x3cb5f9a9	0.022213774
89	0xbdcbe716	-0.099561855
90	0xbdbc6a5a	-0.091999725
91	0x3ce291ca	0.027657408
92	0xbb70238b	-0.003664228
93	0xbcd31b54	-0.025769867
94	0x3be31dd3	0.0069310456
95	0x3d8f446d	0.06995473
96	0xbd4dd6b2	-0.050253578
97	0xbdafe6aa	-0.085889176
98	0xbda211d8	-0.0791356
99	0xbcfd1f4f	-0.030898718
100	0xbd5ff51f	-0.054677125
101	0xbdeebdca	-0.11657293
102	0xbdfdfb96	-0.12401502
103	0xbd5dd65d	-0.05415951
104	0xbd26338a	-0.040576495
105	0xbddb6e03	-0.107143424
106	0xbdd3ede6	-0.1034811
107	0xbd41e5e1	-0.04733837
108	0x3bee8967	0.007279563
109	0xbd2bbbb4	-0.041927055
110	0xbd38cb08	-0.0451155
111	0x3c280185	0.010254269
112	0xbcd994f4	-0.026560284
113	0x3ca76b03	0.02043677
114	0x3dd5de35	0.10442773
115	0x3cd1d52e	0.025614347
116	0xbd0c612e	-0.034272365
117	0x3b4ffd8c	0.003173682
118	0x3ca2c504	0.019869335
119	0x3c415a6c	0.011801343
120	0xbc92abfb	-0.017904272
121	0xbcad7cf2	-0.021177743
122	0xbd406338	-0.046969622
123	0xbc157661	-0.009122462
124	0xbca44040	-0.020050168
125	0x3d0d8fc7	0.034560945
126	0xbc6e752e	-0.014554305
127	0xbd63bc80	-0.05559969
128	0x3d1fcc1b	0.03901301
129	0x3d8a144f	0.06742155
130	0x3db3b4ce	0.0877472
131	0x3cf49f09	0.02986099
132	0x3d5a6d22	0.053326733
133	0x3dde9d1d	0.10869811
134	0x3ddd2363	0.10797765
135	0x3ceff591	0.0292919
136	0x3c9bd46d	0.019022191
137	0x3db1fae9	0.086904354
138	0x3dbb8244	0.091557056
139	0xbbfefd60	-0.0077816695
140	0x3d07f0cd	0.03318863
141	0x3db9f197	0.09079283
142	0x3db9360a	0.0904351
143	0x3b2b7369	0.002616132
144	0x3d4674d0	0.048451245
145	0x3d937b38	0.072012365
146	0xbd01cba7	-0.03168836
147	0xbda5a21a	-0.08087559
148	0x3d19e3f2	0.0375709
149	0x3daef5f9	0.08543009
150	0xbc61568c	-0.013753545
151	0xbdd58a48	-0.10426766
152	0x3d150c60	0.036388755
153	0x3dae93d3	0.08524289
154	0xbb120153	-0.0022278621
155	0xbdb06fa3	-0.08615043
156	0x3b3e241d	0.0029013224
157	0x3d4b8a43	0.049692404
158	0x3cffbee8	0.03121896
159	0xbd002c76	-0.0312924
160	0x3d1b694f	0.037942227
161	0x3d838d08	0.06423384
162	0x3db64140	0.08899164
163	0x3caaf439	0.020868408
164	0x3d8f840b	0.07007607
165	0x3e0baf19	0.13641013
166	0x3e1c9402	0.15290835
167	0x3d0ed174	0.03486772
168	0x3d487b23	0.048945557
169	0x3dd1bbc6	0.10240893
170	0x3dba600d	0.091003515
171	0xbcdfa062	-0.027298156
172	0x3bdc3e85	0.00672132
173	0x3d4a4eea	0.049391665
174	0x3d468dbf	0.048475023
175	0xbcb0a7ab	-0.021564325
176	0xbd4a8642	-0.049444444
177	0x3c35e2d8	0.011101447
178	0x3d46b2a0	0.048510194
179	0xbca65792	-0.020305429
180	0xbd8fc970	-0.07020843
181	0x3c5c6d85	0.013453846
182	0x3d667fa7	0.056274083
183	0xbd223d0f	-0.03960901
184	0xbd4eef51	-0.0505212
185	0x3d3e0af5	0.04639717
186	0x3d80ef50	0.06295645
187	0xbd1cee53	-0.03831322
188	0xbd675274	-0.056475118
189	0xbc6e42d2	-0.014542298
190	0xbd1c89c4	-0.03821732
191	0xbd3e4305	-0.046450634
192	0xbdb0c238	-0.08630794
193	0xbd8a7899	-0.067612834
194	0xbd47b73e	-0.048758738
195	0xbcd6e9b8	-0.026234493
196	0xbd8625ec	-0.06550202
197	0x3c48666f	0.012231453
198	0x3c14e025	0.009086643
199	0xbca8c564	-0.020601936
200	0xbd4c460e	-0.049871497
201	0x3d8220c4	0.06353906
202	0x3d97f08a	0.07418926
203	0x3c9545e0	0.018221796
204	0x3d240f05	0.040053386
205	0x3dc35b9c	0.095389575
206	0x3d922532	0.07136001
207	0x3b18b5ed	0.0023301796
208	0x3c8ba10a	0.017044563
209	0x3d9646bf	0.073377125
210	0x3dbaa11d	0.09112761
211	0x3badb510	0.0053011253
212	0x3cf61a94	0.03004197
213	0x3dc89c3d	0.09795425
214	0x3dcab0b9	0.098969884
215	0xba2c61bd	-0.00065758434
216	0xbd19c831	-0.037544433
217	0x3d2935ab	0.041310947
218	0x3c2d22b4	0.010567356
219	0xbdc5ba94	-0.096547276
220	0xbd8570e1	-0.065156706
221	0xbd19ec7a	-0.037579037
222	0xbcfd6dea	-0.0309362
223	0xbd88e784	-0.06684783
224	0x3cd1dc6c	0.0256178
225	0x3d948a34	0.07252923
226	0x3da7f762	0.082014814
227	0x3bb9cefd	0.005670427
228	0x3d590236	0.052980624
229	0x3e0242da	0.12720814
230	0x3e0667b7	0.13125502
231	0x3ce4a5d5	0.027911106
232	0x3d673032	0.056442447
233	0x3dfc95e0	0.12333274
234	0x3decb469	0.11557848
235	0xbb6fa749	-0.0036568216
236	0x3ccf292e	0.02528819
237	0x3d20c42c	0.039249584
238	0x3d01242f	0.031528648
239	0xbcf09f09	-0.029372709
240	0xbd1d3813	-0.038383555
241	0x3d5ea495	0.054356176
242	0x3da36d51	0.07979835
243	0xbd660e50	-0.056165993
244	0x3d996a7f	0.07491016
245	0x3e0a11da	0.13483372
246	0x3e21349c	0.15742725
247	0xbcba31c0	-0.0227288
248	0x3d6d1722	0.05788339
249	0x3da2efbb	0.07955881
250	0x3d47f048	0.048813134
251	0xbd96e264	-0.07367399
252	0x39a939ca	0.00032277248
253	0x3d48112f	0.048844513
254	0xbc8207ee	-0.015872922
255	0xbc2dffc3	-0.01062006

layers.4.weight f4 [32]
0	0x3e0f1310	0.13972116
1	0x3dd79579	0.105265565
2	0x3e3b00d6	0.18262038
3	0x3d876d7a	0.06612678
4	0x3e4ffeb0	0.20312
5	0x3e2b22a9	0.1671244
6	0xbc6d21f7	-0.01447343
7	0x3e7f02e1	0.24903442
8	0x3df7375e	0.12071107
9	0x3e1c4e31	0.15264203
10	0x3e3e1595	0.1856292
11	0x3e3cefd2	0.18450859
12	0x3e4437e5	0.19161947
13	0x3e6149f9	0.22000875
14	0x3d98142d	0.07425723
15	0x3e4ebac7	0.20188437
16	0x3e6809fc	0.22660059
17	0x3e7f3d19	0.2492565
18	0x3e61a0f8	0.22034061
19	0x3e39d2f6	0.18146881
20	0x3e1db2f8	0.15400302
21	0x3e350907	0.17679225
22	0x3deb9270	0.1150254
23	0x3e0ecebc	0.1394605
24	0x3e487f55	0.19579823
25	0x3d3a8c93	0.04554422
26	0x3dfacb26	0.12245779
27	0x3e0ae563	0.13564067
28	0x3d91443c	0.07093093
29	0x3d9346de	0.07191251
30	0x3e0c3b98	0.13694608
31	0x3de47967	0.11155968

layers.4.bias f4 [32]
0	0xbd3873a7	-0.04503217
1	0xbbf58e72	-0.0074937874
2	0xbc869c18	-0.016431853
3	0xba2cb7fd	-0.00065886957
4	0x3e43ec89	0.191332
5	0x3a802960	0.0009777956
6	0xbcfb611a	-0.03068595
7	0x3ce813bc	0.028329723
8	0xbd85d278	-0.06534284
9	0x3dc0cb90	0.094138265
10	0x3d3f3d8a	0.046689548
11	0x3c3e4982	0.011614205
12	0xbc8a8cb0	-0.016912788
13	0x3ca907b9	0.020633565
14	0xbe215f78	-0.15759075
15	0xbd0393a4	-0.032123223
16	0xbd37ead8	-0.0449017
17	0xbbe06c93	-0.0068488806
18	0xbba54fd7	-0.005044918
19	0xbcca3409	-0.024683015
20	0x3c916a5f	0.017750917
21	0x3e0a2025	0.13488825
22	0x3cd03e9f	0.025420485
23	0x3e2b666d	0.16738291
24	0xbd406790	-0.046973765
25	0x3db21d22	0.08696963
26	0xbd45b8da	-0.04827199
27	0xbdc75383	-0.097327255
28	0xbcb314c2	-0.021860484
29	0xbde85b95	-0.11345593
30	0x3d2fd052	0.04292328
31	0xbe150c59	-0.14555492

layers.5.weight f4 [32]
0	0xbda60844	-0.08107045
1	0xbd7023a8	-0.058627754
2	0xbe191fd3	-0.14953546
3	0x3c85ed9e	0.016348656
4	0xbe5c5f49	-0.21520723
5	0xbe5cfe1e	-0.21581313
6	0xbcc0fe9f	-0.023558913
7	0xbd7f172e	-0.062277965
8	0xbe68d357	-0.2273687
9	0xbd692f1e	-0.0569297
10	0x3e21738e	0.15766737
11	0xbe51b314	-0.20478469
12	0xbe577cd9	-0.2104372
13	0xbd212bfb	-0.039348584
14	0xbe48a19a	-0.19592896
15	0xbe469f63	-0.19396739
16	0x3c66f0dd	0.014095512
17	0xbdabd19a	-0.08389588
18	0x3c608db7	0.013705662
19	0x3df05054	0.117340714
20	0x3e722948	0.2364856
21	0xbdc76e8c	-0.09737882
22	0x3d7bcbb9	0.061473582
23	0xbd6471b6	-0.055772506
24	0xbcd3186f	-0.025768487
25	0xbdb8e2a2	-0.09027602
26	0xbe1c58a0	-0.15268183
27	0xbc6a423b	-0.014298017
28	0xbddce0df	-0.10785078
29	0xbe1379cf	-0.14401935
30	0xbe38e7fb	-0.18057244
31	0xbe6f1a08	-0.23349774

layers.6.weight_orig f4 [64, 32, 4, 4]
0	0xbcb2d9bb	-0.021832338
1	0xbbec9af0	-0.0072206184
2	0xbc8767b0	-0.016528934
3	0xbe0dc421	-0.13844348
4	0xbd925994	-0.07145992
5	0xbc8900e8	-0.016724065
6	0xbc2bba15	-0.010481377
7	0xbd1275f7	-0.03575703
8	0x3c93908c	0.018013261
9	0xbd7c7a88	-0.061640292
10	0xbd0e375f	-0.034720775
11	0x3d3a3619	0.045461748
12	0x3dc28681	0.09498311
13	0x3c2d21fa	0.010567183
14	0x3d4dc481	0.05023623
15	0x3c32dbef	0.010916694
16	0x3c85cab5	0.01633201
17	0x3d48859c	0.048955545
18	0x3c85e51d	0.016344601
19	0xbcc643e3	-0.024202293
20	0xb9022d84	-0.00012414722
21	0x3b0201a1	0.0019837397
22	0xbd10bda8	-0.03533712
23	0x3c4b28a9	0.012399831
24	0x3c6322c8	0.013863273
25	0x3b127a0b	0.0022350575
26	0x3cf78821	0.030216279
27	0x3db4d617	0.08829897
28	0x3d869795	0.06571881
29	0x3ca096de	0.01960319
30	0xbc76e8b6	-0.015070131
31	0xbc200e38	-0.009769015
32	0xbd3ca0f5	-0.046051938
33	0x3b091011	0.0020914117
34	0x3acc7015	0.0015597368
35	0xbdcf65ae	-0.10126816
36	0x3d05927b	0.032610398
37	0x3cd309c6	0.025761496
38	0x3ce9b7d1	0.028530033
39	0x3d3510a7	0.044205334
40	0xbdbc44e6	-0.09192829
41	0xbd419586	-0.047261737
42	0x3d9a8ab5	0.075459875
43	0xbdc2d997	-0.09514158
44	0x3ce66e92	0.028128896
45	0x3d63363d	0.055471648
46	0x3d27e232	0.0409872
47	0x3d540045	0.05175807
48	0x3d8030d2	0.06259312
49	0x3d746634	0.05966778
50	0x3d75c543	0.060002577
51	0x3d2c98a9	0.042137776
52	0x3d7f6a71	0.06235737
53	0x3bc21e80	0.005924046
54	0xbd45b1ec	-0.048265383
55	0xbd977705	-0.07395748
56	0x3d7c151b	0.061543565
57	0x3d32b99f	0.043634053
58	0xbcd2eac0	-0.025746703
59	0xbdcc6a4c	-0.09981212
60	0x3d426d1a	0.04746733
61	0xbbd4840e	-0.0064854687
62	0xbd97dce9	-0.07415182
63	0x3d0c19db	0.034204345
64	0xbd9772af	-0.07394921
65	0x3da4c3c8	0.08045155
66	0x3db35265	0.0875595
67	0x3d1ceabc	0.038309798
68	0xbca679ea	-0.020321805
69	0xbae7ba52	-0.0017679429
70	0xbd1bc4ad	-0.03802936
71	0xbddc8249	-0.107670374
72	0x3d355460	0.04426992
73	0x3e15646a	0.14589086
74	0xbc9f0cc5	-0.019415269
75	0xbe7b6ee1	-0.24554016
76	0x3c1dab12	0.009623306
77	0x3e246828	0.16055357
78	0xbdad2c90	-0.08455765
79	0xbdd68bd7	-0.10475891
80	0x3ac62c5e	0.0015119424
81	0xbe1e966c	-0.15487069
82	0xbd1c92a5	-0.03822579
83	0xbca3f548	-0.02001442
84	0xbde5c042	-0.11218311
85	0x3caf8949	0.021427767
86	0x3b0c7388	0.0021431167
87	0xbdefbc59	-0.11705846
88	0xbc85f911	-0.016354116
89	0xbde42c39	-0.11141247
90	0xbc7d7650	-0.015470102
91	0x3dfdba42	0.123890415
92	0x3d580120	0.052735448
93	0xbe05a01d	-0.1304936
94	0xbd6978e0	-0.05700004
95	0x3e145c40	0.14488316
96	0x3d3a85df	0.045537826
97	0x3d591562	0.052998908
98	0xbbeb7597	-0.0071856487
99	0xbd4e0234	-0.05029507
100	0xbbae23da	-0.0053143324
101	0xbc99a097	-0.018753333
102	0xbd67cbab	-0.056590717
103	0xbd84d290	-0.06485474
104	0xbbfb5115	-0.007669578
105	0xbd3c1359	-0.04591689
106	0xbc907637	-0.017634494
107	0xbca1efd7	-0.019767685
108	0x3d612bc2	0.05497337
109	0x3c3ea337	0.011635593
110	0xbbd5d862	-0.006526039
111	0xbd8c8f13	-0.06863227
112	0xbcb6f66e	-0.022334304
113	0x3b32e783	0.0027298636
114	0xbd9beadf	-0.076131575
115	0xbd56215a	-0.0522779
116	0x3d03525f	0.032060977
117	0x3c1b5775	0.009481301
118	0x3b5510f4	0.0032511326
119	0xbcc806fb	-0.024417391
120	0xbdd80e8b	-0.10549649
121	0xbd5d1df8	-0.05398366
122	0x3dffca43	0.1248975
123	0x3ad54034	0.0016269744
124	0xbd1fba45	-0.038996
125	0x3c38d85e	0.011282055
126	0xbd0f44d5	-0.034977753
127	0xbdb662ae	-0.089055404
128	0xbdc723d6	-0.09723632
129	0x3e0d044c	0.1377117
130	0x3d53e488	0.051731616
131	0x3dd8ba76	0.105824396
132	0xbe1b8e6f	-0.15191053
133	0xbdec60d5	-0.11541907
134	0x3c9b69ba	0.018971313
135	0xbc019070	-0.007907972
136	0x3c85b8cf	0.016323475
137	0xbc01ac23	-0.007914576
138	0xbd249473	-0.040180635
139	0xbd1fafbf	-0.038985964
140	0xbd84e762	-0.06489445
141	0xbce25b6d	-0.027631486
142	0x3d7df2c5	0.0619991
143	0x3e1fc055	0.15600713
144	0xbd32a373	-0.04361291
145	0xbc165191	-0.00917472
146	0xbc85f7bc	-0.01635348
147	0xbdc9b01b	-0.098480426
148	0x3bf5588a	0.0074873613
149	0x3da31a3b	0.079639874
150	0xbc6274e1	-0.013821811
151	0xbd099bb1	-0.033595745
152	0xbd60ee1c	-0.05491458
153	0xbdc42d5e	-0.095789656
154	0x3c5d577a	0.013509626
155	0x3b91f497	0.004454206
156	0xbde01e07	-0.10943227
157	0xbd032f80	-0.03202772
158	0x3cc21d85	0.023695717
159	0xbbae4a5c	-0.005318923
160	0x3dc7d387	0.097571425
161	0x3e459d03	0.19298176
162	0x3e63a967	0.2223259
163	0x3deb9972	0.11503877
164	0x3abba821	0.0014317074
165	0x3dfc9635	0.12333337
166	0x3d0401e9	0.032228384
167	0xbe1955a4	-0.14974076
168	0x3d03087e	0.03199052
169	0x3d690d98	0.05689773
170	0x3c78789b	0.015165473
171	0xbd987163	-0.07443502
172	0xbd86a7dd	-0.06574986
173	0xbc3ffc9e	-0.0117179435
174	0xbd98b970	-0.074572444
175	0x3d10b77f	0.035331246
176	0x3c82ee86	0.015982877
177	0x3a72adb6	0.00092574523
178	0x3dadbd2f	0.084833495
179	0x3dfcd273	0.123448275
180	0x3d2d9f0f	0.04238802
181	0xbdcb9042	-0.09939624
182	0xbdf2daec	-0.11858162
183	0xbda818dd	-0.08207867
184	0x3de2266e	0.11042486
185	0xbda2d04d	-0.079498865
186	0xbdf11a32	-0.117725745
187	0xbdd569b3	-0.10420551
188	0x3debb1e0	0.11508536
189	0xbd28ac12	-0.041179724
190	0xbe4027ad	-0.18765135
191	0xbdde0b6c	-0.10842022
192	0xbd73c3fa	-0.05951307
193	0xbd052626	-0.032507084
194	0xbd4e9798	-0.05043754
195	0xbcb12ec4	-0.021628745
196	0x3d0d92ca	0.034563817
197	0x3d625196	0.055253588
198	0x3ca9bf2d	0.020721043
199	0xbd1e12b3	-0.03859205
200	0xbcd1d24f	-0.025612978
201	0xbd2e17f4	-0.042503312
202	0xbc9ffa24	-0.019528456
203	0x3cc43153	0.0239493
204	0x3d5ac1e9	0.053407583
205	0x3d689c44	0.05678965
206	0x3daf787b	0.08567902
207	0x3d0bcbcf	0.034129914
208	0xbd5027ee	-0.05081933
209	0x3c3b65a6	0.011437809
210	0x3a778ff0	0.00094437506
211	0x3d86ab62	0.065756574
212	0xbd4e06fe	-0.050299637
213	0xbd1f599b	-0.038903814
214	0xbd056bf0	-0.03257364
215	0x3d98efc8	0.0746761
216	0x3d8257c8	0.06364399
217	0x3c82a546	0.01594795
218	0xbaf998cd	-0.001904273
219	0xbc268011	-0.010162369
220	0x3db54499	0.088509746
221	0x3cc9844c	0.024599217
222	0xbdf39615	-0.1189386
223	0x3dac8b2b	0.08424982
224	0x3d2d74f5	0.042347867
225	0xbcbdce71	-0.023169728
226	0xbd32aad0	-0.04361993
227	0xbdb7e17f	-0.08978557
228	0xbcf080be	-0.029358264
229	0xbd336c93	-0.043804716
230	0xbde6305b	-0.11239692
231	0xbc4dae8a	-0.01255382
232	0xbcece7cc	-0.028919123
233	0xbd228438	-0.039676875
234	0xbce1c228	-0.027558401
235	0x3de5edba	0.11226983
236	0x3de4ce2e	0.11172138
237	0x3d0940d4	0.03350909
238	0xb96014f4	-0.0002137011
239	0xbd884846	-0.0665441
240	0x3c63247b	0.013863678
241	0x3d517ced	0.05114453
242	0x3d05d483	0.03267337
243	0xbda9ecb5	-0.082971014
244	0x3d1a20f2	0.037629075
245	0x3bf642b1	0.0075152745
246	0x3c4ab33c	0.012371834
247	0xbbe4fff7	-0.006988521
248	0xbd279a3e	-0.04091858
249	0x3c5a416a	0.01332126
250	0x3b962ec4	0.0045832116
251	0x3e140837	0.14456259
252	0x3d62af2d	0.055342842
253	0x3dbfc9c6	0.09364657
254	0x3dabeaaa	0.08394368
255	0x3d4ab597	0.049489584

layers.6.weight_u f4 [64]
0	0x3c6151cb	0.013752411
1	0x3b7b7761	0.0038370716
2	0x3dfbd033	0.1229557
3	0x3e3fdde1	0.18736984
4	0x3d77fe72	0.060545392
5	0xbd3cafb9	-0.04606602
6	0x3dfb38f4	0.12266722
7	0x3eb09203	0.34486398
8	0xbd4c9944	-0.049950853
9	0x3dcf4b97	0.101218395
10	0x3d8f33f4	0.06992331
11	0x3e20e3af	0.15711854
12	0xbd62e8c0	-0.05539775
13	0xbcb91cf5	-0.022596816
14	0x3dac8ecb	0.08425673
15	0x3d87a9dc	0.06624195
16	0x3d228c25	0.039684433
17	0x3d1f01c0	0.03882003
18	0x3ed8805e	0.42285436
19	0x3be6a23e	0.0070383837
20	0x3d2e1c96	0.04250773
21	0xbd4c7358	-0.049914688
22	0x3d11bbaf	0.03557938
23	0xbcea6760	-0.028613746
24	0x3e4315ea	0.19051328
25	0x3e472e50	0.1945126
26	0xbc2954e6	-0.010335183
27	0x3c85c8c6	0.016331088
28	0x3da0d9e9	0.07854063
29	0x3d0eb1ea	0.03483764
30	0xbc1d6dbc	-0.009608682
31	0x3dd8d865	0.10588149
32	0x3d40eb38	0.047099322
33	0x3e1fbdd8	0.15599763
34	0x3e47a645	0.1949702
35	0xbd868ad9	-0.06569452
36	0x3c42cec0	0.011890113
37	0x3ebcccbc	0.3687495
38	0x3da39995	0.07988278
39	0x3d7ac8d1	0.06122667
40	0xbe860d93	-0.2618223
41	0xbc3733e1	-0.0111818025
42	0x3d8eb598	0.0696823
43	0x3ca42d31	0.02004108
44	0xbcc9316a	-0.024559695
45	0xbc4875b5	-0.012235095
46	0x3d9e2990	0.07722771
47	0x3d48e082	0.049042232
48	0x3d9b2b76	0.07576649
49	0x3b8d6445	0.0043149316
50	0xbd39693b	-0.04526637
51	0xbd45724c	-0.048204705
52	0xbdb22878	-0.08699125
53	0x3d9de825	0.07710294
54	0xbbc94873	-0.00614267
55	0xbe314543	-0.17311577
56	0x3e011466	0.12605438
57	0xbd79edb6	-0.061017714
58	0x3e6bbe1f	0.23021744
59	0xbe0f5d3a	-0.14000407
60	0x3d592512	0.05301387
61	0xbd0e7fd7	-0.034789886
62	0x3d160be7	0.036632445
63	0x3e1624a9	0.14662422

layers.6.weight_v f4 [512]
0	0xbd1a22d0	-0.037630856
1	0xbbd8af62	-0.006612704
2	0xbd72514b	-0.05915956
3	0xbd3c19bb	-0.045922976
4	0xbd17bf47	-0.03704765
5	0xbbc86b0a	-0.0061162757
6	0xbd056da7	-0.032575276
7	0xbd8f3d13	-0.06994071
8	0xbd011b81	-0.03152037
9	0xbc4a8b57	-0.012362323
10	0xbceb29c7	-0.028706444
11	0xbd21baab	-0.03948466
12	0xbcc1b73e	-0.023646947
13	0xbc99e0bb	-0.018783918
14	0xbcc873d4	-0.024469294
15	0xbd075ea4	-0.03304924
16	0xbd84e365	-0.064886846
17	0xbdf92e91	-0.12167085
18	0xbdc95c27	-0.0983203
19	0xbd771cb8	-0.060330123
20	0xbd8cc1ab	-0.06872877
21	0xbe0e73c9	-0.13911356
22	0xbddb3d68	-0.10705072
23	0xbd816907	-0.063188605
24	0xbd9f6abb	-0.07784029
25	0xbdd652e6	-0.1046503
26	0xbdca4604	-0.09876636
27	0xbd945ecb	-0.07244643
28	0xbe0e87ec	-0.13919038
29	0xbe178b3b	-0.14799206
30	0xbe248538	-0.16066444
31	0xbe0d8b36	-0.13822636
32	0x3d1cd105	0.038285274
33	0x3d0168a8	0.03159395
34	0x3bd1aa26	0.006398457
35	0x3c94d559	0.018168138
36	0x3c72f463	0.014828774
37	0x3d11f27d	0.035631645
38	0xbb07325e	-0.0020629386
39	0xbc972213	-0.018448865
40	0x3cdd163f	0.026988147
41	0x3ccabfe7	0.02474971
42	0xb89c0a29	-7.440552e-05
43	0x3cb88ed5	0.022529045
44	0x3d5fe5c9	0.0546625
45	0x3ce101c7	0.027466668
46	0x3c72b935	0.014814665
47	0x3cb2e296	0.02183656
48	0xbce73c1d	-0.028226906
49	0xbcd2b384	-0.025720365
50	0xbcd65e13	-0.026167905
51	0xbb43fc66	-0.002990508
52	0xbd8f5804	-0.069992095
53	0xbd9fb2ea	-0.07797797
54	0xbda23d0f	-0.07921802
55	0xbd01bd7c	-0.031674847
56	0xbd2a9f80	-0.041656017
57	0xbd2c9c25	-0.0421411
58	0xbd8dc40d	-0.06922159
59	0xbcea4e17	-0.02860169
60	0xbd850a68	-0.064961255
61	0xbd861101	-0.06546212
62	0xbdb02094	-0.08599964
63	0xbd38f137	-0.045151915
64	0xbc716df4	-0.0147356875
65	0xbc1af7cd	-0.009458494
66	0x3c65d0f4	0.014026869
67	0xbca31d23	-0.019911354
68	0x3c1b1c17	0.009467146
69	0x3bb0bfd5	0.005393962
70	0x3cf891d7	0.03034298
71	0xba59753a	-0.0008295361
72	0xbcabe89f	-0.020984946
73	0x3c7c58eb	0.015402059
74	0x3d4dac46	0.05021312
75	0x3cba5533	0.022745704
76	0xbcf0d68a	-0.029399175
77	0x3ce51e22	0.02796847
78	0x3d89435c	0.06702301
79	0xbc0a0b93	-0.008425611
80	0x3c8e62c6	0.017381083
81	0x3c9af8fc	0.018917553
82	0x3c61a9bc	0.013773378
83	0x3c97ac06	0.018514644
84	0x3cb493f4	0.022043206
85	0x3d04e1c7	0.03244188
86	0x3cbc2e9f	0.02297145
87	0x3d10388c	0.035210177
88	0x3d00a7f8	0.031410187
89	0x3d5d8bd2	0.05408842
90	0x3d12697a	0.03574512
91	0x3d4be50c	0.049778983
92	0x3d28fce0	0.041256785
93	0x3d38816f	0.045045312
94	0x3d2851e0	0.041093707
95	0x3d8eb45f	0.06967997
96	0xba42859e	-0.0007420423
97	0xb9068aac	-0.00012830895
98	0xb767a4ed	-1.3807073e-05
99	0x3a06159a	0.0005114913
100	0xbb61255d	-0.0034354546
101	0xbb09f75c	-0.0021051979
102	0xbb80230d	-0.0039104284
103	0xbb19c3ea	-0.002346272
104	0xbb7371d9	-0.0037146716
105	0xbac68216	-0.001514497
106	0xbb686f29	-0.0035466647
107	0xbad7abaa	-0.0016454358
108	0xba1ebe09	-0.0006055539
109	0x3ac5730b	0.0015064193
110	0xba022db1	-0.0004965915
111	0x3a7aa80c	0.0009561784
112	0x3be8db60	0.0071062297
113	0x3c7d7c98	0.0154716
114	0x3bf98e4f	0.0076158415
115	0x3ab265b5	0.0013610633
116	0x3d8f4535	0.06995622
117	0x3d964562	0.073374525
118	0x3d81208f	0.06305038
119	0x3d6e2f78	0.05815074
120	0x3d2d879c	0.042365655
121	0x3d9640cf	0.0733658
122	0x3d550c8d	0.052013922
123	0x3cd23051	0.025657805
124	0x3cfd2cb2	0.030905101
125	0x3d495c29	0.049160156
126	0x3d41d8cd	0.047325898
127	0x3cde13b2	0.027109
128	0xbcf0f10e	-0.029411819
129	0xbccabafe	-0.024747368
130	0x3b4ca5e7	0.0031226815
131	0xbd020379	-0.031741593
132	0xbca45fd5	-0.020065228
133	0x3b82cbee	0.0039915955
134	0xbba66536	-0.0050779833
135	0xbcc02554	-0.0234553
136	0xbc28c7b4	-0.010301519
137	0xbd045fb6	-0.03231784
138	0xbcbe4364	-0.023225494
139	0xbd6f34d0	-0.058399975
140	0xbd3884fc	-0.0450487
141	0xbc284882	-0.010271193
142	0xbd023130	-0.03178519
143	0xbc512791	-0.012765781
144	0x3cf1aaa5	0.029500315
145	0x3cdedacf	0.027203945
146	0x3cbaf346	0.02282108
147	0x3bc61d63	0.0060459836
148	0x3c1dc585	0.009629612
149	0x3cb35419	0.021890687
150	0x3c9845e9	0.018588023
151	0x3c813e6d	0.015776837
152	0xba59d08b	-0.00083089684
153	0x3c83d668	0.016093448
154	0x3c47df46	0.012199229
155	0xbb047a5e	-0.0020214538
156	0xbcad1e35	-0.021132568
157	0x3c8c581e	0.017131861
158	0x3c18b05f	0.009319394
159	0x3b1aba7f	0.0023609695
160	0xbd0bef78	-0.034163922
161	0xbc666c1e	-0.014063863
162	0x3c6285c5	0.013825838
163	0x3b9c98b9	0.004778948
164	0xbcad8cd4	-0.021185316
165	0x3a641bb4	0.0008701638
166	0x3baf41ae	0.005348406
167	0x3949b85a	0.0001923753
168	0x3d27a88d	0.040932227
169	0x3cb11300	0.021615505
170	0xbc5bcf3b	-0.013416107
171	0x3b74deb3	0.0037364184
172	0x3cb378b1	0.021908136
173	0x3d0bffe2	0.034179576
174	0x3cca6d54	0.024710335
175	0x3ca28875	0.019840458
176	0xbc8b00fa	-0.01696824
177	0xbca8c1eb	-0.02060028
178	0xbc0ee46d	-0.008721453
179	0xb8bb8ec6	-8.9434485e-05
180	0xbcca71b8	-0.024712428
181	0xbd30e4c5	-0.04318692
182	0xbcda98b1	-0.026684137
183	0xbc8fc04d	-0.01754775
184	0x3b4ca2e9	0.0031225032
185	0xbb268975	-0.002541152
186	0xbb0bda21	-0.0021339732
187	0xbbe6d161	-0.007044003
188	0x3d050fae	0.032485656
189	0x3c9e0113	0.019287622
190	0xbc2e2982	-0.010630013
191	0xbb9943ee	-0.0046772873
192	0xbd894c63	-0.06704023
193	0xbd9f4ea2	-0.0777867
194	0xbd3da7e5	-0.046302695
195	0xbd6fda43	-0.05855776
196	0xbd27e659	-0.04099116
197	0xbca2485a	-0.01980989
198	0x3d07faa1	0.033198003
199	0xba895d67	-0.0010480107
200	0xbd90422f	-0.070438735
201	0xbd75f8f2	-0.060051866
202	0xbc4ff81d	-0.012693432
203	0xbce777ba	-0.028255332
204	0xbd3f5fd0	-0.046722233
205	0xbcaa6fc5	-0.020805249
206	0xbc79f600	-0.015256405
207	0xbd42a5a9	-0.047521267
208	0x3bd07d10	0.006362565
209	0xbc8b2395	-0.01698474
210	0xba4241f2	-0.00074103393
211	0x3c2f3f5e	0.01069626
212	0xbcc68dca	-0.024237532
213	0xbcb0a279	-0.021561848
214	0xbc11379f	-0.008863359
215	0x3c6d84cf	0.014496996
216	0x3c63dbb2	0.01390736
217	0x3bf82ab2	0.007573449
218	0x3cdc779e	0.026912507
219	0x3c171293	0.009220737
220	0xbbc05313	-0.005869278
221	0xbd0fd3bb	-0.03511403
222	0x3c6316ff	0.013860463
223	0x3c37b8f0	0.011213526
224	0xbde3c707	-0.11121946
225	0xbe4b2509	-0.19838347
226	0xbda82c93	-0.08211627
227	0xbdc63f75	-0.09680072
228	0xbe194499	-0.14967574
229	0xbe382b0c	-0.17985171
230	0xbdc630bf	-0.09677266
231	0xbd9abc25	-0.07555417
232	0xbe26651e	-0.1624951
233	0xbe360b5e	-0.17777774
234	0xbd9caa2a	-0.07649644
235	0xbd863b55	-0.065542854
236	0xbdfe3d0b	-0.12413987
237	0xbe067c12	-0.13133267
238	0xbdb37e66	-0.08764343
239	0xbd84c519	-0.06482906
240	0x3c24ce98	0.010059021
241	0xbab7951f	-0.0014006234
242	0xbd1a4de5	-0.037671942
243	0xbc8c2450	-0.017107159
244	0x3b84c0e2	0.0040513137
245	0x3b4cdef1	0.0031260813
246	0xbca0a4ce	-0.019609835
247	0xbbddabc9	-0.006764863
248	0x3c881dd0	0.016615778
249	0xbc01e10b	-0.00792719
250	0xbb1feb98	-0.00244019
251	0x3be1a17f	0.006885707
252	0x3bc4e329	0.006008525
253	0xbc84f741	-0.016231181
254	0xbcf52453	-0.029924547
255	0xbbffc1a1	-0.007805065

layers.7.weight f4 [64]
0	0x3e2a7062	0.16644433
1	0x3e549902	0.20761493
2	0x3e7fc18b	0.24976175
3	0x3e4cc3ec	0.19996613
4	0x3e20a713	0.15688734
5	0x3dfff04c	0.12497005
6	0x3e22b921	0.15890934
7	0x3e21239a	0.15736237
8	0x3dd0a8b1	0.10188425
9	0x3e37857f	0.17922018
10	0x3e654e1d	0.22393079
11	0x3e73b152	0.23798111
12	0x3e397850	0.18112302
13	0x3e238cbe	0.15971658
14	0x3e668a75	0.22513755
15	0x3d979f76	0.07403462
16	0x3e406ab9	0.18790711
17	0x3e33bf3b	0.17553417
18	0x3e6cadb1	0.23113133
19	0x3dc1faa5	0.09471635
20	0x3e4d0df5	0.20024855
21	0x3dd3e18d	0.10345755
22	0x3e46443c	0.19361967
23	0x3df8e031	0.12152136
24	0x3e831bbf	0.25607106
25	0x3e4da87f	0.20083807
26	0x3e384dad	0.17998381
27	0x3deeb8e8	0.11656362
28	0x3df509e6	0.119647786
29	0x3de7609e	0.11297725
30	0x3e4d7772	0.20065096
31	0x3e8241f1	0.25440934
32	0x3dad6344	0.08466199
33	0x3e58932c	0.21149892
34	0x3e334426	0.17506465
35	0x3dcbcd9a	0.09951325
36	0x3e2c1656	0.16805395
37	0x3e68eca6	0.22746524
38	0x3e4f4354	0.20240527
39	0x3e63c8db	0.22244589
40	0x3ecd65e9	0.40116814
41	0x3dedce26	0.11611585
42	0x3e482a3f	0.19547366
43	0x3e03f486	0.12886247
44	0x3e1d0f61	0.15337898
45	0x3db243f6	0.08704369
46	0x3e7f5796	0.24935755
47	0x3e12ade0	0.1432414
48	0x3dd9a037	0.10626262
49	0x3db88e22	0.09011485
50	0x3e1d366f	0.15352796
51	0x3ddbbd0f	0.107294194
52	0x3da187c8	0.07887226
53	0x3e150287	0.14551745
54	0x3dc5d899	0.09660453
55	0x3d47fc9e	0.0488249
56	0x3e46fd58	0.1943258
57	0x3d9c2d1c	0.076257914
58	0x3e02e18a	0.12781349
59	0x3d880ba3	0.066428445
60	0x3e4956d5	0.1966203
61	0x3d91137b	0.07083794
62	0x3e160e2d	0.14653845
63	0x3e718753	0.23586778

layers.7.bias f4 [64]
0	0xbde796b0	-0.11308038
1	0xbd8d0bd3	-0.06887021
2	0xbe074094	-0.13208228
3	0x3d9c240a	0.076240614
4	0xbd266f26	-0.040633343
5	0x3c6fb736	0.014631083
6	0x3de444fb	0.111459695
7	0x3d3617fa	0.04445646
8	0xbd908a89	-0.070576735
9	0x3cb37bf6	0.021909695
10	0xbd9c2eb1	-0.07626093
11	0x3e057a1d	0.13034864
12	0xbd02205a	-0.031769134
13	0x3e11234b	0.1417362
14	0xbc86bb04	-0.016446598
15	0xbd47e792	-0.048804827
16	0x3c4ec053	0.012619096
17	0xbdf80fbe	-0.121123776
18	0x3dfee3be	0.12445782
19	0x3df0ce39	0.11758084
20	0x3e1a4796	0.1506637
21	0xbd6ab15a	-0.057298042
22	0x3d42e307	0.04757979
23	0xbda8e179	-0.082461305
24	0x3dff6957	0.12471264
25	0x3db86931	0.09004439
26	0x3c18d147	0.009327239
27	0xbb030148	-0.0019989777
28	0xbd111139	-0.035416815
29	0x3db62932	0.08894576
30	0xbd5bfd7f	-0.05370855
31	0x3d4e67c1	0.050391916
32	0xbdbe727a	-0.092991784
33	0xbd94375f	-0.07237124
34	0x3d8e861a	0.069591716
35	0xbdc200c4	-0.09472802
36	0x39a6242a	0.00031688932
37	0x3e1eb833	0.15499954
38	0x3e1e48b8	0.15457428
39	0x3bd78ace	0.006577826
40	0xbea699be	-0.3253917
41	0xbcc62140	-0.024185777
42	0xbde2ca50	-0.11073744
43	0xbc547019	-0.012966179
44	0xbdb30adc	-0.08742306
45	0xbd55cf76	-0.052199803
46	0x3ca31d18	0.019911334
47	0xbd5640b1	-0.05230779
48	0xbdbca71f	-0.09211563
49	0xbdb63993	-0.088977
50	0x3d79903a	0.06092856
51	0xbd99421a	-0.07483311
52	0x3affff9a	0.0019531131
53	0xbdb5f6a3	-0.08884933
54	0xbe2cdb10	-0.1688044
55	0xbd7fcee8	-0.06245318
56	0x3dc03b43	0.09386303
57	0x3d02241b	0.031772714
58	0x3d222713	0.039588045
59	0xbd8c4e5b	-0.068508826
60	0x3e126050	0.14294553
61	0xbdc3bcfd	-0.09557531
62	0x3bd1f37b	0.006407199
63	0xbba7f9e1	-0.0051262234

layers.8.weight f4 [64]
0	0x3eca9d59	0.39573172
1	0x3df07d1b	0.11742612
2	0x3e9ee3f3	0.31033286
3	0x3dffa99b	0.124835216
4	0x3d524038	0.051330775
5	0xbe14a882	-0.14517406
6	0xbe099126	-0.13434276
7	0x3b039dcb	0.0020083066
8	0x3dd07c85	0.1018
9	0xbd3f9443	-0.046772253
10	0x3ec3d530	0.38248587
11	0xbdff929f	-0.12479138
12	0xbe84b6a2	-0.25920588
13	0xbdfbef9d	-0.12301562
14	0x3d02e70d	0.03195863
15	0x3e72dbe0	0.23716688
16	0xbdffe508	-0.12494856
17	0x3efe89b1	0.49714425
18	0x3e389610	0.18025994
19	0x3e3936a0	0.18087244
20	0xbe830797	-0.25591728
21	0xbdd775b3	-0.10520496
22	0x3cafddf5	0.021468142
23	0xbdb5b104	-0.08871654
24	0x3dd8a9df	0.10579275
25	0x3c5a0524	0.01330689
26	0x3e108687	0.14113818
27	0x3e017b4f	0.12644695
28	0x3e8b2e8f	0.2718396
29	0xbe4d60a5	-0.20056398
30	0x3f0134db	0.50471276
31	0xbe68b873	-0.22726612
32	0xbe5947ed	-0.21218844
33	0xbe15030c	-0.14551944
34	0x3cd4596b	0.025921544
35	0xbe4b4c7f	-0.198534
36	0xbcbcae99	-0.023032473
37	0x3e58b23c	0.21161741
38	0x3e843128	0.25818753
39	0xbe9aa7ee	-0.30206245
40	0x3d842cb2	0.064538375
41	0x3db2cfc6	0.08731036
42	0x3e8a7ab4	0.2704674
43	0xbe60f097	-0.21966778
44	0x3ee64971	0.44977906
45	0x3e564a32	0.20926741
46	0x3e255348	0.1614505
47	0x3e956f26	0.29186362
48	0xbd4ee115	-0.050507624
49	0x3e4e8789	0.2016889
50	0x3e4160a9	0.18884529
51	0x3de9759d	0.11399386
52	0xbe37f3e9	-0.17964138
53	0x3e3d59a6	0.1849123
54	0xbea5c77f	-0.32378766
55	0xbe9a255e	-0.30106634
56	0xbe63e651	-0.22255827
57	0x3e3cc7cf	0.18435596
58	0x3aeb125b	0.0017934548
59	0x3cce6532	0.025194738
60	0xbe591314	-0.21198684
61	0xbe7642ec	-0.24048966
62	0x3ed12219	0.40846327
63	0x3eb948b5	0.36188284
